weights_resnet (1).pth (torch, 333906 bytes, 47 tensors)

conv1.weight f4 [16, 3, 3, 3]
000000 5e b2 be bd 5e 81 88 bd 6c 5e 08 bd be eb 8f be
       -0.093113646 -0.066653 -0.033293173 -0.28109545
000010 ce 4f 1e be 4d 47 33 3d dc 80 dd bd 1e 2b 4f bd
       -0.1546013 0.04376917 -0.108155936 -0.05057823
000020 06 54 11 3e d9 33 46 bd a2 c3 5e be 2f e8 b7 bd
       0.14192209 -0.04838929 -0.21754315 -0.089798324
000030 3c 5c f0 bd 69 2e f3 3c 41 ff 4f 3e 1e a7 e5 bd
       -0.11736342 0.029685216 0.20312215 -0.11213516
000040 62 6b 5b bd 68 ae 29 3d 81 75 73 bd 31 da cc bd
       -0.053569205 0.041426092 -0.059438232 -0.10002554
000050 a8 cc 9b 3d 1f c4 41 bd 00 bf 81 3d 26 65 2d 3d
       0.076073945 -0.047306176 0.063352585 0.04233279
000060 a5 bf ab 3d a2 d8 be 3d a3 0e 27 3e 3c 82 08 3f
       0.08386163 0.09318663 0.16314177 0.5332372
000070 75 5d 06 3f 21 4a b7 3e 9a 4b f2 3d b6 31 c9 3d
       0.52486354 0.35798743 0.11830826 0.09823935
000080 76 73 71 be 7e 3a c5 be d3 ae fd be 55 34 fb be
       -0.23579201 -0.38521188 -0.49547443 -0.49063364
000090 0d 90 d3 3e f3 ce 62 3e b4 e2 9c 3d 92 04 93 3d
       0.4132084 0.22149257 0.07660428 0.07178606
0000a0 9d ec 95 3d bc 59 1e be b2 9b 8f be d3 39 a0 be
       0.07320521 -0.15463918 -0.28048474 -0.31294116
0000b0 fa 97 43 be e9 71 ae 3e e7 c1 af 3d c8 06 5d 3d
       -0.19100943 0.34071282 0.08581906 0.053961545
0000c0 ff 62 90 3e ff 87 0e 3b 31 24 5d be 56 2b a4 bd
       0.28200528 0.002174854 -0.21595837 -0.08016078
0000d0 27 a5 8f bd d5 4b 94 be 44 f8 87 3d 17 1f 56 3e
       -0.07013922 -0.28964105 0.0663915 0.20910297
0000e0 b5 57 34 3c 2a 43 58 3e 28 74 29 bd 5b 95 9e bc
       0.011007239 0.21119371 -0.04137054 -0.019358328
0000f0 35 18 ac 3d fe 18 b8 3d 21 d8 38 3e 9c 78 e2 3d
       0.084030546 0.08989142 0.18051197 0.11058161
000100 aa 19 c0 3d 1d 4d 6e 3d 7a 48 ee bb ae 25 39 3d
       0.09379895 0.05817901 -0.0072718235 0.04520195
000110 e3 7c 8e bb 58 97 79 3d 3b f2 74 bd 31 1e 2d 3e
       -0.0043483838 0.06093535 -0.05980132 0.16906048
000120 aa de e3 3c de 71 a7 3d 0f d7 b9 bd ab 65 00 be
       0.027816135 0.08176015 -0.09074222 -0.12538783
000130 96 99 80 3d d2 6a 45 bd 68 c7 dc 3c 7c 52 a5 3c
       0.06279294 -0.048197575 0.026950553 0.020180933
000140 53 83 89 3d 06 b1 10 3e 48 96 3d 3d a6 05 95 bc
       0.06714501 0.14130029 0.046285897 -0.01819117
000150 e6 dc 9a bd 54 1f 3e 3d 44 76 0f 3e c8 19 b7 3d
       -0.07561664 0.046416596 0.14009959 0.08940464
000160 09 8a 85 3d 31 c2 3d 3e fe 7a 31 3d 22 ad 50 3d
       0.06520469 0.1853111 0.043330185 0.050946362
000170 3c d8 23 3d 66 94 00 3e 60 37 e8 3d 6e f9 12 3e
       0.04000114 0.1255661 0.11338687 0.14352962
000180 08 fc 06 bc 73 6f 33 3d 1f fb 97 bd 3b c1 f5 bd
       -0.0082388 0.043807458 -0.074209444 -0.119997464
000190 7c a2 bd 3d 26 e2 41 bd d2 e4 16 3d 9d 3b cd bc
       0.09259507 -0.047334813 0.036839314 -0.02505284
0001a0 e4 4f 0f 3d ad 20 1b 3c 61 57 25 3d ac 68 58 bc
       0.0349883 0.00946824 0.040366534 -0.0132085495
0001b0 cb 47 98 be 5f 99 13 be f4 e3 5a be 41 52 8b be
       -0.29742274 -0.14413975 -0.2137602 -0.27211192
0001c0 c4 a6 43 bd 38 74 06 bd 5d 81 93 3e b6 00 5c 3e
       -0.047766462 -0.03282568 0.28809634 0.21484646
0001d0 d2 26 57 3e 07 0f bd bd 73 e0 50 be e0 bc 27 3d
       0.21010903 -0.09231382 -0.2039812 0.04095161
0001e0 8d b7 d5 bd 68 6a 53 bd be e9 91 bd 09 e6 95 3e
       -0.104354 -0.05161515 -0.07124661 0.29277065
0001f0 d8 71 9b 3e bd 0c 7e 3e 58 6f 5a be ee 86 6e be
       0.30360293 0.24809547 -0.21331537 -0.23293659
000200 23 24 81 be 43 dd a3 bd f0 0f 06 be 60 71 99 bd
       -0.25222883 -0.08001187 -0.13092017 -0.07492328
000210 2c 74 93 3e a6 0c 52 3e 09 67 0f 3e eb 33 3d bd
       0.2879957 0.20512637 0.14004149 -0.04619209
000220 f1 34 67 bd 14 f7 c0 bd 60 ee 7b 3d 9e e0 27 3e
       -0.056446973 -0.094221264 0.06150663 0.16394278
000230 da 71 43 be 03 e0 fe bc d0 d9 ed bd dc 42 21 be
       -0.190864 -0.031112676 -0.1161381 -0.15748161
000240 fe 37 80 3e e9 0b f7 3d ad 02 f0 3c c8 ed 39 3e
       0.2504272 0.120628186 0.02929815 0.18157113
000250 cf 15 43 3e 02 73 05 3e 73 3c 00 3e 07 2c 02 3e
       0.19051288 0.13032153 0.1252306 0.12712108
000260 7d 83 be bc 67 5e fa bc 84 78 c4 3b 53 76 9f bd
       -0.023256058 -0.030562593 0.005995812 -0.077862404
000270 c7 0f 9b bd 6f 19 ff bb ba 03 6a be d7 0e 01 be
       -0.07571369 -0.0077850143 -0.22852984 -0.12603317
000280 17 8a 22 be dd 16 c7 be 37 4e 44 be 5b 42 89 bc
       -0.1587299 -0.3888463 -0.19170462 -0.016755274
000290 21 e3 bc 3e dc 30 81 be 23 48 e2 bc 31 ed 71 3e
       0.36892036 -0.2523259 -0.027622288 0.23625638
0002a0 29 d5 c2 3d 6d 31 d0 bc f6 09 c2 3e 78 2f 14 be
       0.09513313 -0.025414193 0.37898225 -0.14471233
0002b0 b3 22 90 be 3c 08 bc bd 95 7b ac be 8a 9f 93 be
       -0.28151473 -0.09181258 -0.33688036 -0.28832656
0002c0 4d b0 1e 3e 3a bb 8d be 34 5e 33 be dc 83 99 3d
       0.15496941 -0.27681905 -0.17516404 0.07495853
0002d0 3e e0 48 be 2c 2a 66 bd 61 3d cd 3e fc a9 85 be
       -0.19616792 -0.056192562 0.4008589 -0.2610625
0002e0 d7 2d c0 bd 5b c3 a7 3e 5a d9 20 3e 17 ec a2 bb
       -0.09383743 0.32766232 0.15707913 -0.0049719918
0002f0 e1 ec b5 3e 60 c8 1c be d0 18 16 be ea cd 40 bd
       0.35532287 -0.15310812 -0.14657903 -0.047071375
000300 6a d8 e5 3b f4 5a e8 bd c1 22 f3 bc 84 78 bc bd
       0.007014324 -0.11345473 -0.029679658 -0.09202674
000310 1b 48 62 be 4f 6b 36 be f9 70 8e bd b3 06 a9 ba
       -0.22097819 -0.17814372 -0.069551416 -0.0012895673
000320 6d cb 45 be 5a ff 5f bb b4 f0 39 bc d8 b7 5e bd
       -0.19315882 -0.00341793 -0.011348892 -0.054374546
000330 5e 69 b2 bd b6 6a 24 be 73 48 1d be 58 ae 1c 3e
       -0.087115034 -0.16056332 -0.15359668 0.15300882
000340 b1 23 a5 3e 60 3f 2b 3e 0f 57 62 3e da 7c 72 3e
       0.32253793 0.16723394 0.22103523 0.2368044
000350 13 96 b0 3e bb 6e db 3d 78 eb 3e 3e bb 79 10 3d
       0.34489498 0.107144795 0.18644512 0.03527234
000360 03 21 82 bd 45 44 85 be 91 50 ae bd 72 7f 26 3e
       -0.06353953 -0.26028648 -0.085114606 0.16259554
000370 2d f7 8d 3e 63 f6 5d 3e bc 9e d1 bb cf 14 6d 3d
       0.27727643 0.2167602 -0.0063970964 0.057881173
000380 a5 d9 22 3d 61 39 64 be cb d4 b0 bd 9d 50 c0 bd
       0.039758343 -0.22287513 -0.08634337 -0.09390376
000390 ef 41 41 bd 27 a0 8e bd e3 5d 17 bd 0a b7 08 bd
       -0.04718202 -0.069641404 -0.03695477 -0.033377685
0003a0 95 9d 06 be 5d 00 18 be 10 1b 6e 3d b6 4a 63 3e
       -0.1314605 -0.14843889 0.058131278 0.22196469
0003b0 31 1e 58 3e 77 91 85 3d 7f b9 d9 3d 7a fa 66 3e
       0.21105267 0.06521886 0.10631084 0.22556487
0003c0 97 ee 01 3d 77 fa 4e bd 22 7f 0d 3e e1 a4 16 be
       0.031721678 -0.05053183 0.13818029 -0.14711334
0003d0 44 8f ae bd 86 46 3d be e9 c6 b3 3d d8 56 eb 3c
       -0.085234195 -0.18483934 0.087781735 0.028727934
0003e0 14 9f 2e 3d 85 98 1a 3c 75 75 b9 bd c6 72 17 be
       0.042632177 0.009435778 -0.09055606 -0.14789876
0003f0 89 2e ee 3d ab 7d b5 3d 48 8e c6 bd d6 dd 74 3e
       0.116299696 0.0886186 -0.09695107 0.23912749

bn1.weight f4 [16]
000000 20 0b 2c 3f 7d e6 44 3f 6b 7b f6 3e 61 d5 0b 3f
       0.67204475 0.769142 0.48141035 0.54622465
000010 19 38 2d 3f 59 22 12 3f e3 18 36 3f 8e 30 20 3f
       0.67663723 0.5708366 0.71131724 0.6257409
000020 ba 68 1b 3f 02 7c 2e 3f 63 62 2a 3f 5a 49 21 3f
       0.60706675 0.6815797 0.66556376 0.6300255
000030 32 96 1a 3f da 2c 36 3f 61 68 79 3f e3 20 1f 3f
       0.6038543 0.7116219 0.97424895 0.62159556

bn1.bias f4 [16]
000000 32 8e c4 be 8a 30 af 3e 3d c7 cf 3d 45 33 5b be
       -0.38389736 0.3421672 0.101454236 -0.21406277
000010 2a d8 75 bc e3 c2 be bd 1d 67 66 3d b9 91 af bd
       -0.015005151 -0.093145154 0.05625068 -0.08572716
000020 82 5a e0 3d 4c 5e 7a 3e cc b5 77 be 22 5a 3d be
       0.10954763 0.24450034 -0.24190444 -0.18491414
000030 0d 45 89 be 7c f2 3b be 42 89 39 3f 2f 28 37 3e
       -0.26810494 -0.18354219 0.72475064 0.17886423

bn1.running_mean f4 [16]
000000 b2 d8 fa 3d 94 96 23 3b 77 fa 1a be b5 bf 00 be
       0.122483626 0.0024961578 -0.15134607 -0.1257313
000010 32 a1 9d 3c 2a d7 5d bc 98 a6 80 3b 3d c9 6d 3e
       0.019241903 -0.013540069 0.0039261095 0.23221298
000020 1e 26 86 3c d0 2b a5 3c 0f 1e ac 3d 81 63 10 3e
       0.016375598 0.020162493 0.08404171 0.14100458
000030 51 45 15 3d 66 38 d7 bc a1 ea 19 bc 6d c4 cc 3d
       0.03644306 -0.02627201 -0.009394319 0.09998403

bn1.running_var f4 [16]
000000 77 bb 1e 3f bc 0e 3e 3f f0 d0 f3 3f 26 3d b9 3f
       0.620048 0.7424123 1.9048138 1.4471786
000010 04 ad f5 3e 23 72 da 3e 1a bd dc 3e 19 4d 8e 3f
       0.47983563 0.42665204 0.43113023 1.1117278
000020 ec 57 dd 3e 97 fd 00 3f 8e c8 86 3f 05 72 17 3f
       0.43231142 0.5038695 1.0529954 0.59158355
000030 a8 51 0f 3f f6 63 8d 3f d5 64 a3 3f 21 31 1b 3f
       0.5598397 1.1046131 1.2765146 0.6062184

layer1.0.conv1.weight f4 [16, 16, 3, 3]
000000 b7 17 e5 3d b8 8a c2 3d ac f9 7a bd 26 0e f4 3d
       0.11186164 0.09499115 -0.061273262 0.11916761
000010 24 27 b6 bd 9c 84 c5 bd fb 4e a7 3c 0d 42 7a 3c
       -0.08894184 -0.09644434 0.020423403 0.015274537
000020 7c cf a6 bd 8d c2 d9 bd a6 f7 76 be 9e 6f cb 3a
       -0.08145043 -0.10632811 -0.24117908 0.0015520935
000030 0a 32 fb bc 6a 23 7f bd 9c f8 3f 3e 52 ae 0c 3e
       -0.030663509 -0.062289633 0.1874718 0.13738373
000040 fc f1 53 3e 20 16 f6 3d 38 1d f7 bc df 4e ab bd
       0.20697778 0.12015939 -0.0301653 -0.08364653
000050 c0 e8 d0 bc 7e e2 e1 3d 5e 81 97 3c 9c 38 14 3d
       -0.025501609 0.11029528 0.018494304 0.0361868
000060 73 68 19 3d 25 b1 13 be 1e cd 2e 3e aa c8 85 bd
       0.037453126 -0.14423044 0.17070433 -0.06532414
000070 e3 f4 80 bc 39 37 b0 3d 2f ce 51 bd 65 af 9d bc
       -0.015741771 0.08604283 -0.051222023 -0.019248674
000080 72 f6 54 3d 33 bc bd 3c 7e 61 7a 3d bc 66 04 3e
       0.05199284 0.02316103 0.061128132 0.12929815
000090 0b 39 a1 3d fd a4 98 3d a8 65 f3 bd 20 d5 b6 bd
       0.07872208 0.07453344 -0.11884624 -0.08927369
0000a0 b9 69 9c 3d 6d 6f bd bc 14 83 f0 bb e5 d3 23 be
       0.076373525 -0.023124421 -0.0073398445 -0.159988
0000b0 2d ad 74 39 5f a8 6e bb c4 86 cd 3d 69 18 15 be
       0.00023334166 -0.0036416275 0.1003547 -0.14560093
0000c0 f5 51 53 bc a4 9c c4 bd 0e b6 6a bd fb 38 2a bd
       -0.012897958 -0.09600189 -0.057302527 -0.041558247
0000d0 aa a4 b9 3d f3 22 96 3c b1 89 80 3c 39 8a 1d 3d
       0.0906461 0.018327212 0.015690656 0.038461898
0000e0 c7 0c c7 3d 3d 09 70 3d 83 c1 3b 3e 97 75 b1 bd
       0.09719234 0.05860256 0.18335538 -0.086650066
0000f0 39 e5 c2 3c 07 55 f9 3b ef 6a 1f bd 43 d7 f6 bd
       0.023790943 0.007609013 -0.03892034 -0.12052777
000100 f0 d9 22 3e 6c e9 a3 3d 2c dd 46 be 37 1c 7b bd
       0.15903449 0.08003506 -0.19420308 -0.061306205
000110 ad e0 a5 3d 59 cf 9e bd 6d 62 6c bd 65 df a2 bd
       0.08099494 -0.07754392 -0.057711054 -0.079527654
000120 39 53 0c 3d 00 b0 79 bc 32 fa d4 3c d2 26 43 3e
       0.034259055 -0.015239716 0.025998209 0.19057778
000130 05 c6 bf 3d 0d ad 12 3e 18 7c a5 3d e0 e0 a5 3c
       0.09363941 0.14323826 0.0808031 0.02024883
000140 2d 0d b8 3d 8f 5d 19 be 36 6e 90 bd 8e 1c 9d bd
       0.08986888 -0.14977096 -0.07052271 -0.07671462
000150 f2 35 48 3c ee c5 f2 bd 57 53 04 3c da 09 03 be
       0.012219893 -0.11854158 0.00807651 -0.12796727
000160 0a e0 4b bd c2 83 53 be 70 db 72 3e 86 fb 3c bd
       -0.049774207 -0.2065573 0.23716521 -0.04613831
000170 18 f8 e0 bd 65 78 9d 3d 65 51 95 3c df e0 33 be
       -0.1098482 0.07688979 0.018227288 -0.1756625
000180 08 cd cb bc ec b2 f2 3d 58 19 34 3d 8e c7 4a 3d
       -0.02487804 0.11850533 0.043969482 0.049506716
000190 76 c8 a9 bb ba 87 29 bd 57 dd 4d bd fd 81 fb bd
       -0.0051813675 -0.041389205 -0.050259914 -0.12280653
0001a0 5f 6b 15 be e3 b6 a4 bd aa d2 10 3e 12 60 a4 3d
       -0.1459174 -0.080426954 0.14142862 0.080261365
0001b0 5f 9f 60 3d bc 54 8a bd d2 d3 20 3d e1 d8 b2 3d
       0.054839488 -0.06754443 0.039264508 0.087327726
0001c0 a8 06 14 bd d8 84 48 be 4b e5 a1 bc f9 bf 32 3d
       -0.03613916 -0.19581926 -0.019762656 0.04364011
0001d0 50 24 15 3d 87 7e bc bd 4c 49 20 3d d1 af ca bd
       0.036411583 -0.09203821 0.0391324 -0.098968156
0001e0 57 0f d2 3d 1a 77 d5 bd 46 7b 2b 3d d4 7c 63 bd
       0.10256832 -0.104231074 0.04186561 -0.055538967
0001f0 a9 05 f1 3d 82 01 ea bb ef 24 bf bd 01 5f e5 bd
       0.11768658 -0.007141293 -0.093332164 -0.11199761
000200 af 56 ff bc 63 02 89 bc 50 a4 58 3d eb 7f 17 3e
       -0.031169264 -0.01672477 0.052891076 0.1479489
000210 1a 8b 3f 3d 9e d1 ce 3d a7 9b a3 3d 57 65 82 be
       0.046763517 0.10098575 0.07988673 -0.2546794
000220 32 0e 42 bc 89 36 71 bd 46 cc 41 3c 7f f2 38 bd
       -0.011844205 -0.0588899 0.011828488 -0.045153137
000230 1f 03 b1 bd 74 68 21 be ec 22 1a bc 25 b8 f9 bb
       -0.086431734 -0.15762502 -0.00940774 -0.0076208287
000240 b3 90 28 3e 28 e9 4d be 51 11 f8 bd e0 3f 4c bb
       0.16461448 -0.20108473 -0.12112678 -0.0031166002
000250 0a fe 7d 3c 6b 4d f2 bc 1e b1 09 bc d9 05 58 3c
       0.015502462 -0.029577931 -0.008404044 0.013184988
000260 16 a7 ff 3c 11 36 0e be 5f 9b 45 be d3 82 54 be
       0.031207602 -0.13887812 -0.1929755 -0.2075303
000270 d4 e6 af bd 65 5a 0f bd e2 aa 37 bd 16 cf 33 bd
       -0.08588949 -0.034998316 -0.0448407 -0.043898664
000280 8b 96 c5 bd 77 93 b6 bd 30 94 c9 3d d9 2f 3b bc
       -0.096478544 -0.089148454 0.09842718 -0.011424982
000290 43 18 a1 bc cc e6 fd bd 85 0d 0c be a0 8e 20 bd
       -0.01966489 -0.12397537 -0.13677032 -0.039198518
0002a0 4b 73 9e bc 70 48 a8 bd 13 d0 80 3e a3 4d 5b 3c
       -0.019342085 -0.08216941 0.25158748 0.013385209
0002b0 58 1c 20 3a 24 08 c4 bb aa 7c cb bd a3 97 07 3e
       0.0006107739 -0.0059824158 -0.09935887 0.13241439
0002c0 a5 5b eb 3d 45 1c 09 bc 44 de 91 3d 19 31 2f bc
       0.11492089 -0.008368556 0.07122472 -0.010692858
0002d0 59 9b f3 3c e6 10 9b bd 62 b4 f3 3c 73 5f c5 bc
       0.029737161 -0.075715825 0.0297491 -0.024093365
0002e0 12 cb 99 bc d3 45 55 bb 82 b3 1c bc ff c9 ce 3c
       -0.01877359 -0.003254284 -0.009564282 0.025242804
0002f0 ff fa 2e 3d 4b 9b 90 bd b1 38 f0 bd dc 16 98 bc
       0.042719837 -0.0706087 -0.11729563 -0.018565588
000300 41 1b a6 3b 29 04 4a 3c 7f 35 99 ba 2f a4 09 bc
       0.005069167 0.012330093 -0.0011688917 -0.008400961
000310 82 8d 32 be 72 6d 9a 3d 89 0e ea 3d 5d 56 51 3d
       -0.17436793 0.07540406 0.114285536 0.051107753
000320 21 a3 66 bd 00 13 24 3d db 63 a3 bd 77 50 2b 3e
       -0.056307916 0.040057182 -0.0797803 0.16729914
000330 84 57 19 bd fb 00 c6 3d a5 6d 2a 3e 84 24 f2 3d
       -0.037436977 0.09668156 0.16643389 0.11823371
000340 bd ff 8d 3d 7e e7 3f 3d 51 09 ee 3b 8e 03 22 bd
       0.06933544 0.046851628 0.007264294 -0.03955417
000350 e9 97 00 3d 74 ab c5 3d ff 5e 99 bd b8 95 5c be
       0.031394873 0.09651843 -0.07488822 -0.21541488
000360 62 3a 38 3e a8 7b b8 bd ea d1 41 3a b9 37 06 be
       0.17991021 -0.090079606 0.00073936454 -0.13107194
000370 a0 c8 5b bb b9 dd 36 3e 37 b0 8a 3d 35 9f b2 3d
       -0.003353633 0.17858018 0.067718916 0.087217726
000380 25 54 9c 3d 44 1b 28 be 9c 64 12 3e e7 eb 0a be
       0.07633237 -0.16416651 0.14296192 -0.13566552
000390 5e e1 f3 bc d5 5b d0 3d 5b 52 bb 3c 9c 85 7b 3c
       -0.02977055 0.101737656 0.022866419 0.015351679
0003a0 db 39 6e 3d dc 1a 15 3d 4e 22 bf bd f1 f5 d6 bc
       0.058160644 0.03640257 -0.09332715 -0.02624032
0003b0 b3 dc 4e 3d 09 81 72 bd 5a 19 4a bc da 88 d1 3d
       0.050503444 -0.05920509 -0.012335146 0.102311805
0003c0 23 d7 23 3a a4 34 b4 3d 6f f6 2e be 8b d8 a3 3c
       0.00062500144 0.08799103 -0.17086194 0.020000717
0003d0 fd 2f de bc 54 aa b7 3c 56 32 7f bd e1 bc db bd
       -0.027122492 0.022420086 -0.062303863 -0.10729385
0003e0 da a0 3a be e1 fa 19 3d c8 63 05 bd 2b 3a 17 3e
       -0.18225423 0.037592772 -0.032565862 0.14768283
0003f0 9b b3 96 3c 5f d3 ae bc b6 0f 37 3d 73 e1 61 be
       0.01839619 -0.021341024 0.044692717 -0.22058658

layer1.0.bn1.weight f4 [16]
000000 03 a8 34 3f 60 09 2d 3f 02 c5 43 3f dc 30 20 3f
       0.70568866 0.6759243 0.76472485 0.62574553
000010 b9 52 37 3f e6 57 76 3f fd 96 2a 3f 6b 2e 24 3f
       0.716106 0.9622787 0.6663664 0.6413333
000020 e2 a9 11 3f 2d 82 2a 3f 13 65 2d 3f 1e 8e 27 3f
       0.56899846 0.6660488 0.6773235 0.6545123
000030 cb e7 20 3f 44 3b 43 3f 05 8b 65 3f 39 20 43 3f
       0.6285369 0.7626231 0.8966525 0.7622104

layer1.0.bn1.bias f4 [16]
000000 8d 13 5a bd b1 26 4a bd 5e 71 1f bd ed 8c e5 bd
       -0.0532413 -0.049353305 -0.038926475 -0.1120852
000010 c9 59 e9 3c 3f 57 90 bd 9f 06 cd bd a9 8a e8 bd
       0.028485196 -0.07047891 -0.100110285 -0.11354572
000020 f3 a9 a2 be ec 9e e0 bb cb 4a 4a bd d8 d2 18 be
       -0.31770286 -0.0068548825 -0.049387734 -0.1492418
000030 e6 aa 35 3d d8 a6 b8 3d 62 b1 44 3d e6 44 a4 3c
       0.044352435 0.09016198 0.048020728 0.020052385

layer1.0.bn1.running_mean f4 [16]
000000 69 24 c6 bd 06 e4 92 be ec 7d 41 bf b3 fe dd be
       -0.096749134 -0.28689593 -0.75582767 -0.43358383
000010 5d 9d 04 bf 90 2a 54 bf 1a af 7e 3e d2 81 e5 3c
       -0.5180262 -0.82877445 0.24871483 0.028016005
000020 9c 25 cd 3e e1 0a a0 bf c5 8e 95 bf 22 1b 8e 3f
       0.40067756 -1.250332 -1.1684195 1.110203
000030 71 90 e3 be a7 62 f2 be 51 a0 13 3f 8f d5 b3 be
       -0.44446138 -0.4734089 0.576665 -0.3512387

layer1.0.bn1.running_var f4 [16]
000000 0a 2c 8d 3e f1 57 0f 3f 00 9a 91 3e 58 62 26 3f
       0.27572662 0.5599356 0.28437805 0.6499381
000010 a7 6a e6 3e 16 bf f3 3f 80 5a 15 3f 29 c0 d8 3d
       0.45003244 1.904269 0.5834122 0.10583527
000020 95 26 8b 3e c1 ae 83 3f 60 03 31 3f e9 d6 c3 3e
       0.27177873 1.0287706 0.69145775 0.382499
000030 18 e1 16 3f e6 4a 46 3f 50 d7 70 3f fa 80 08 3f
       0.58937216 0.77458036 0.9407854 0.533218

layer1.0.conv2.weight f4 [16, 16, 3, 3]
000000 70 95 60 bd b8 6e 86 bd ad e9 17 bc 9a 57 03 bd
       -0.054830015 -0.06564087 -0.009272021 -0.032065965
000010 09 76 3b bc 2b 0e 88 3d 34 15 c6 3c af 82 d1 3c
       -0.011441716 0.06643327 0.024180032 0.02557501
000020 00 1c ef 3d 62 24 08 3e 5e fe 41 3c df d4 92 3d
       0.116752625 0.13295129 0.011840431 0.07169508
000030 03 cd 19 be f7 46 0f 3e 11 71 e0 3d 3a d9 83 bd
       -0.15019612 0.13991915 0.10959066 -0.06437917
000040 81 28 5b bd f6 e5 03 3d 1b 33 96 bd 81 6d ad 3d
       -0.053505424 0.03220173 -0.07333966 0.08468152
000050 4c 3d b9 3d 68 5b a7 bd 40 91 ea bc 95 0d a4 bd
       0.090448946 -0.08171731 -0.028633714 -0.08010403
000060 96 7c 6b bd 6f 29 81 3c f2 f8 44 3d 8e 20 67 3e
       -0.05749186 0.015766827 0.048088975 0.22571012
000070 fd 53 22 3e 20 80 63 3c 40 6a 39 3d c8 67 69 bd
       0.15852351 0.013885528 0.045267344 -0.05698374
000080 2f 24 69 3c a6 3f 00 3d 42 c0 1b 3d 4d 0a bb 3b
       0.014229818 0.0313107 0.03802515 0.005708015
000090 40 d6 72 3d f8 ff 5c bd 93 a1 2a 3e 67 e3 cb bd
       0.059286356 -0.05395505 0.16663198 -0.09955483
0000a0 78 2a ab 3d 8e d4 1a 3e c7 9f 65 3c e4 cb c9 3d
       0.0835771 0.15120146 0.014015145 0.09853342
0000b0 2d 2e 23 3d 1f e5 d5 bd bf cc 0f 3e ae d3 b5 3e
       0.03983896 -0.10444092 0.14042948 0.3551306
0000c0 1e 8e 61 be c4 d4 26 3d 8b 3a 8b 3d 99 04 25 be
       -0.2202687 0.040730253 0.067982756 -0.16115035
0000d0 c2 99 48 bd db 16 b4 bc 92 4f 1f 3e 9b 39 1f 3d
       -0.04897476 -0.021983555 0.15557697 0.038873296
0000e0 7c 39 32 bd c9 4b 60 bc 26 13 66 3c e0 84 40 bd
       -0.043511853 -0.013689944 0.014042651 -0.04700172
0000f0 76 ec 9e 3d 42 1b b8 bc 37 f5 50 bd 1a a4 fb bc
       0.07759945 -0.022473935 -0.051015105 -0.030717898
000100 5c d9 be bd 53 48 1c bd c6 9c 16 3e d4 73 8b bc
       -0.09318802 -0.03815491 0.14708242 -0.017023005
000110 01 64 03 be ec 93 2a be c8 4b 85 bd b5 42 9c bc
       -0.12831117 -0.1665799 -0.06508595 -0.019074777
000120 83 43 41 be 4b 06 fb 3c 5b 7c 7c 3d aa 11 05 be
       -0.1887341 0.03064265 0.061642032 -0.1299502
000130 26 4a 7b 3d ef bb dc bd 2a fd b1 bc 30 0b 88 bb
       0.06135001 -0.10778033 -0.021727163 -0.0041517243
000140 27 8b 2e 3d d4 ec 64 be 96 b9 e6 3c 91 2d 79 3c
       0.042613175 -0.22355968 0.028164666 0.015208618
000150 e0 63 68 ba d9 16 60 bd 90 02 b7 bc 5a a7 0a be
       -0.000886498 -0.05470929 -0.02234009 -0.13540402
000160 39 6f 00 3e 20 2b 00 39 ac 17 8f bd 0c 01 61 be
       0.12542428 0.00012223097 -0.06986937 -0.21973056
000170 f8 a7 6d 3d d5 0e bd bd 0c d8 8e 3d c6 c1 d1 3d
       0.058021516 -0.092313446 0.069748014 0.102420375
000180 48 53 0d bd 06 79 d3 bd d2 05 47 3d 78 db ce bc
       -0.03450325 -0.10325818 0.048589535 -0.025251135
000190 78 de b0 3d 34 0a 9b bd 53 d4 dc 3d 69 1d 5a be
       0.086361825 -0.075703055 0.10782685 -0.21300282
0001a0 a9 fd 96 3d 43 5c b5 bd 25 e5 43 3d fa 9b a2 bd
       0.073726006 -0.08855488 0.04782595 -0.079399064
0001b0 cf 28 cb 3b 4f 5b c1 3d a2 6a 03 3e c5 2e 24 3e
       0.006199933 0.09441244 0.12833646 0.16033466
0001c0 93 14 1d 3e 14 66 b0 3d 26 50 a4 3d e5 f9 40 be
       0.1533988 0.0861322 0.080230996 -0.18845327
0001d0 3b 84 4e 3c 27 d5 9a bd 0a a5 80 bd 67 f2 1d 3e
       0.012604768 -0.07560187 -0.06281479 0.154245
0001e0 1f 37 22 be 9b 93 11 3e 46 ed d0 3d ab b8 0b bd
       -0.1584134 0.14216463 0.10201506 -0.03411166
0001f0 a9 8a a0 3d b4 0a da 3c cb 33 c3 3d d9 4f fc 3d
       0.07838947 0.026616432 0.09531363 0.12319917
000200 37 9a 2b be 57 f9 4d 3e 7a 11 be 3d d0 5d 99 bd
       -0.16758047 0.20114647 0.09280677 -0.074885964
000210 87 89 65 3a 9e a9 84 3d 05 d9 29 be d9 dc b9 bb
       0.000875615 0.064776644 -0.16586693 -0.005672079
000220 d1 53 b2 3c 0c a2 7b bc 00 2d 15 be 79 79 e3 bd
       0.021768482 -0.015358459 -0.14567947 -0.111071534
000230 3b a9 bd 3d f8 fe d8 bd 99 43 64 be e2 c3 1d ba
       0.09260794 -0.105955064 -0.22291411 -0.00060182635
000240 fa dc 9c bc d0 0b 2c be e6 99 c3 bb 52 ea bf bd
       -0.019148339 -0.16801381 -0.005969274 -0.09370865
000250 d6 09 a0 bd 9a af a0 bd f6 87 8e bd 14 f1 23 bc
       -0.07814376 -0.07845993 -0.06959526 -0.010006208
000260 b8 db 94 3d 16 33 ca bc d4 e0 42 3a a8 f9 73 3d
       0.072684705 -0.024682563 0.00074340147 0.059564263
000270 46 1b 8b ba d4 bf 2c be 94 89 8f bd 33 8b c6 3c
       -0.0010612987 -0.16870052 -0.07008663 0.024236297
000280 ee 4e 33 be 65 87 34 be c9 c1 ad bd 68 31 32 be
       -0.17510578 -0.17629774 -0.08484227 -0.1740166
000290 f5 42 b9 bd 00 6c dc bd 7d e8 28 bd 19 35 2f ba
       -0.09045974 -0.10762787 -0.041237343 -0.00066836324
0002a0 08 da 39 3e dc 06 d4 3d 58 5d ee 3b 15 fa 50 3d
       0.18149579 0.10352871 0.007274311 0.051019747
0002b0 0b 88 3b 3e 31 dc 1f 3e 14 90 e8 3d 25 09 95 3d
       0.18313615 0.1561134 0.11355606 0.07277135
0002c0 9e 8b 91 3d 52 09 92 3b 5a 74 e0 3b da b1 84 3d
       0.07106708 0.0044566775 0.0068498077 0.06479235
0002d0 7c ba c2 bd 73 90 19 be 2b 19 4f bd 29 8d 79 3d
       -0.09508225 -0.14996509 -0.05056111 0.060925636
0002e0 32 34 d4 3d b8 7b 01 3d 9b aa 99 3d 48 80 a5 3d
       0.10361518 0.031612128 0.075032435 0.08081108
0002f0 97 29 36 3e 3f 52 84 bd 5a 44 ab 3c f8 89 f1 bb
       0.17789303 -0.06461 0.020906616 -0.0073711835
000300 02 e1 bc 3c c0 ee 25 3e 73 5c e7 bd 18 4f dc bd
       0.02305651 0.16204357 -0.1129693 -0.107572734
000310 f2 e2 6e bd e7 3c 0e 3d 2a 55 30 3d 3b b2 c3 3c
       -0.0583219 0.03472605 0.04304997 0.023888698
000320 02 45 8d ba fc 9c 7f bb 50 c0 53 3c 05 c3 29 3c
       -0.0010778012 -0.0039003482 0.012924269 0.010361438
000330 42 29 3e 3e 05 ed 1b 3e f4 76 0f bc 4c da 87 bd
       0.18570426 0.15227135 -0.008756388 -0.06633434
000340 99 35 b9 bc 01 51 67 bd 62 ca 14 3d 76 ae 25 3e
       -0.022608565 -0.056473736 0.03632582 0.16179833
000350 b1 82 49 bc bc c5 fe bd 59 53 8e bd f2 ac 14 be
       -0.012299226 -0.124400586 -0.06949491 -0.14519098
000360 9f 04 85 3d cf c6 29 bd d0 20 2b 3e 88 51 9f bd
       0.06495022 -0.041449364 0.16711736 -0.07779223
000370 00 e2 83 3d 2a 55 3d 3d e4 c3 d6 3d 44 1d c7 3d
       0.064395905 0.046223797 0.10486582 0.09722379
000380 31 df 04 3d 1e 67 a5 bd 7d 1a 90 3d 51 6a aa bd
       0.032439414 -0.08076309 0.07036302 -0.083210595
000390 ac e1 8c bc 5a 20 30 3d 0d 8c d2 3c ab fe f3 bc
       -0.017197452 0.042999603 0.025701547 -0.029784521
0003a0 03 01 84 bd 8d 5c f0 bd c0 bb 8a 3c aa 4a 16 3d
       -0.064455055 -0.11736403 0.01693523 0.0366923
0003b0 b2 87 2d 3d ee 18 4c 3e 0f ca 14 3e 0f 33 40 bd
       0.042365737 0.19931385 0.14530204 -0.046923693
0003c0 fd 14 71 bd 85 dc 11 bd 32 10 c0 bd e9 65 48 bb
       -0.058857907 -0.035610694 -0.09378089 -0.0030578321
0003d0 a7 1d 31 bc 42 06 f4 3d 03 6c a0 bd e1 a4 18 be
       -0.010810292 0.11915256 -0.078331016 -0.14906646
0003e0 84 54 44 3e 9e 91 d4 bd 5f 4f ad bd d4 9e b3 ba
       0.19172865 -0.10379337 -0.084624045 -0.0013703951
0003f0 1b 36 69 bd fc 0a 22 bc d6 be 1b 3e 0b a2 ee 3d
       -0.056936365 -0.009890314 0.15209517 0.11652001

layer1.0.bn2.weight f4 [16]
000000 5f 0d 53 3f 6e 73 6f 3f a8 e1 29 3f 55 13 23 3f
       0.8244228 0.93535507 0.6635995 0.63701373
000010 5a 80 06 3f 0f 8b 11 3f 80 fa 4c 3f f3 09 05 3f
       0.525396 0.5685281 0.8006973 0.51968306
000020 28 a9 4d 3f 3f 81 3d 3f f9 74 62 3f 66 62 31 3f
       0.80336237 0.7402534 0.88459736 0.6929077
000030 a4 b1 0b 3f 43 c9 1a 3f 53 03 3e 3f bd 9d 72 3f
       0.54567933 0.6046335 0.7422382 0.9477194

layer1.0.bn2.bias f4 [16]
000000 37 14 fe 3d 58 2e da 3d fd 5e 10 3e ec 24 71 bd
       0.124061994 0.106533706 0.14098735 -0.058873102
000010 ec b4 7f be 6f d7 15 3d 7e 9f f4 bd 76 ec 1f be
       -0.2497136 0.036582407 -0.11944483 -0.15617546
000020 b2 17 89 3c f9 7e 38 3e b0 5a 15 3e 88 88 08 be
       0.016734932 0.18017186 0.14585376 -0.13333333
000030 a9 22 76 bc a5 21 02 be bc ae ea bb 38 68 80 bc
       -0.015022912 -0.12708147 -0.0071619432 -0.015674695

layer1.0.bn2.running_mean f4 [16]
000000 12 38 29 3e a9 1f 2f bd 3b 71 9f be 38 c4 a2 3e
       0.16525295 -0.042754803 -0.31141075 0.31790328
000010 2e d6 ca 3e 19 ec 6c be 0d cc 1b bf 32 50 b8 be
       0.3961653 -0.23136939 -0.6085823 -0.35998684
000020 16 26 12 be 9c 5b 04 bf aa f0 34 be c1 69 13 3f
       -0.14272341 -0.51702285 -0.17669931 0.5758324
000030 18 e2 e2 3d 6e 19 22 3f ed 60 3d bf 8c a1 30 bf
       0.1107828 0.6332005 -0.7397602 -0.689965

layer1.0.bn2.running_var f4 [16]
000000 60 7b 14 3f d8 a0 af 3e 39 51 ed 3e 61 87 ed 3e
       0.58000755 0.34302402 0.4635103 0.46392348
000010 52 2a a0 3e 31 ed 9f 3e c7 2c 31 3f 6a f5 08 3f
       0.31282288 0.3123565 0.6920895 0.5349947
000020 ce b5 2f 3f 77 26 dd 3e 86 ef d8 3e 67 fe 0e 3f
       0.68636787 0.4319341 0.42370242 0.5585694
000030 84 32 b9 3e d3 e9 c4 3e de ad d3 3e 86 63 46 3f
       0.36171353 0.38459644 0.41343588 0.7749561

layer2.0.conv1.weight f4 [32, 16, 3, 3]
000000 77 c0 66 bd 15 02 de bd f5 16 1c be 72 7c 7b bd
       -0.056335893 -0.10840241 -0.15243132 -0.061397977
000010 a4 a1 99 b9 5d fa 64 bd 77 2f 6d 3d ad 56 f1 3c
       -0.00029302866 -0.055902828 0.057906594 0.029460276
000020 79 85 e8 3d 05 e5 a7 3c 20 81 0d bd 21 2d 00 be
       0.11353583 0.020494947 -0.03454697 -0.12517215
000030 97 64 d7 3d 60 54 69 3d 86 6a af 3b e2 bb e3 3d
       0.10517233 0.056965232 0.0053532748 0.1111982
000040 22 2d e5 3d 7d 17 c8 3d e5 34 4a bd d1 a1 7a 3c
       0.11190249 0.09770105 -0.04936685 0.015297369
000050 bd 3c 24 bc f9 c0 f1 bd c0 cc 91 bc d6 10 16 be
       -0.010024247 -0.11804385 -0.017797828 -0.1465486
000060 aa 8d 17 bd ae d0 7f 3d 47 1d 88 bc d3 14 2f bd
       -0.037000336 0.06245487 -0.016615523 -0.04274447
000070 90 c5 fc bc 64 9f 8d bd de e4 58 bd d9 04 bb bc
       -0.030855924 -0.06915167 -0.05295264 -0.02282946
000080 fb 33 38 bd 0d af 40 3c 16 c0 c7 3d 60 27 61 bc
       -0.044971447 0.011760485 0.09753434 -0.013742298
000090 ab 50 32 bd 73 51 03 3d 89 a0 74 bd 58 1a 2f 3d
       -0.043533962 0.032060098 -0.05972341 0.042749733
0000a0 15 a5 6b 3c 24 4c 52 bd 4d cb 84 bd a3 54 d6 3c
       0.01438262 -0.051342145 -0.06484089 0.026163405
0000b0 06 f7 f5 3c fa 30 e8 bd e0 58 8f bd 63 fb ce 3c
       0.030025017 -0.113374665 -0.069993734 0.025266355
0000c0 d6 e1 b2 3b df e8 43 3c 78 9d d4 3d 6d e1 0a 3d
       0.0054590506 0.011957376 0.10381597 0.03390639
0000d0 f2 fe 20 3d 55 f0 d3 3d ff 62 c9 3c 9c 0e 7f bc
       0.039305635 0.10348574 0.024583338 -0.015567448
0000e0 84 09 fe 3b 9b 8d 33 3d e3 4f 00 3c 80 60 91 3d
       0.007752599 0.043836217 0.0078315465 0.07098484
0000f0 7b 53 37 3c 99 4f 31 be 59 c3 37 3d be b6 77 bd
       0.011189337 -0.1731552 0.044864032 -0.06047701
000100 ca d7 12 3d 5b 7f 24 be 10 85 c0 bb 4f 23 79 bd
       0.035850324 -0.16064207 -0.0058752373 -0.06082469
000110 cd a5 ac bd b9 b0 6f bc 0a cb 1b bd d4 f1 46 bd
       -0.084300615 -0.014629536 -0.03803543 -0.04857047
000120 78 24 d1 bb 73 e5 12 bd 8e b0 fe bd bf 0a ac 3d
       -0.0063825212 -0.03586335 -0.12436019 0.08400487
000130 2b 22 aa bc 5c 0c 87 3d d9 a7 f6 3d e1 60 90 bd
       -0.020768246 0.06594154 0.12043733 -0.07049728
000140 9e ac 6d bd e5 a3 ca bd 60 fb dd 3c 3a 44 a5 bb
       -0.05802595 -0.09894542 0.027097404 -0.0050435336
000150 6a 5c bc 3d db 14 9a bb 77 90 59 bc 8b 42 5f bd
       0.09197314 -0.004702193 -0.013279072 -0.05450682
000160 34 8d d1 bd f3 be c6 3c 77 d2 02 be 5a 29 95 bd
       -0.102320105 0.024260974 -0.12775598 -0.07283278
000170 04 2f 3b bd b1 10 44 3c f0 c8 17 3c 85 2c 82 3d
       -0.045699134 0.01196687 0.009264216 0.06356148
000180 8a 5f 27 3e b3 7a 86 3d 70 95 23 3e 7c 84 70 bd
       0.16345039 0.06566372 0.15974975 -0.058720097
000190 61 53 99 bd 0c c7 7d 3c aa 3b 7c bc 8b d4 91 3c
       -0.074866064 0.015489351 -0.015395084 0.017801544
0001a0 8c 9e 71 3d 16 8a 1e bc 70 b9 17 3e d7 9c 11 3e
       0.058989093 -0.009676477 0.14816833 0.14219986
0001b0 55 6f 17 bd e5 b5 64 3c 31 d6 fc 3b f2 60 d2 3b
       -0.03697141 0.013959383 0.0077159633 0.006420248
0001c0 fe a7 3f bd 3b 5b 93 3d 91 a6 ac bc 8a 67 4f 3d
       -0.04679107 0.07195135 -0.021075519 0.050635852
0001d0 8f 86 bd 3d 00 5e d5 3c 15 88 ad bc bb 39 57 3d
       0.09254181 0.0260458 -0.021183053 0.05254529
0001e0 47 0f 16 bd 1e e1 7a 3d 27 00 1c bd 11 76 37 bd
       -0.036635663 0.061249845 -0.038086083 -0.04479033
0001f0 07 0d 0e bc bf 6d 27 3d 56 4a fb 3c 11 c5 e3 bc
       -0.008670098 0.040876146 0.030675095 -0.02780393
000200 e2 3e 48 3a e7 21 6f bd 0d 2b 25 bd 18 3b 80 bc
       0.0007638765 -0.05838194 -0.04032426 -0.015653178
000210 1e c7 d7 3d 25 81 a3 3d 18 9e 87 bd 54 11 60 3c
       0.105360255 0.07983617 -0.06621951 0.013676006
000220 b3 76 a6 bc 91 99 be bd eb 74 83 bc d2 a4 a2 3c
       -0.020320272 -0.09306634 -0.016046962 0.019853983
000230 5b 02 9b bd aa 6a 23 bb 02 41 cb 3c 91 d6 9e 3d
       -0.07568809 -0.0024935403 0.024811272 0.07755769
000240 2f 3d c7 3c eb d6 4f 3d 33 6d 2c bc 8d 13 99 3d
       0.024321167 0.05074207 -0.010524082 0.07474432
000250 b0 66 af 3d f7 d5 84 3c e4 03 ca 3c 2d e6 b5 bd
       0.08564508 0.016215308 0.024660058 -0.08881793
000260 d8 1f 14 bb 45 af e0 3d c0 54 8a 3c 75 6e 60 3c
       -0.0022601988 0.1097093 0.016886115 0.01369821
000270 73 b7 e6 3d df 72 a5 3c bb ed 03 3d 55 ba 82 bd
       0.11265459 0.020196376 0.03220914 -0.06383196
000280 d4 ae af bc 5e 7b 26 3d 1b 37 21 be 38 d7 03 3d
       -0.02144567 0.040644996 -0.15743677 0.03218767
000290 e6 06 8a ba a2 96 93 bd 37 12 e1 3c a6 89 33 bd
       -0.001053062 -0.07206465 0.027474506 -0.043832444
0002a0 7a fe 95 bd 45 8a 9e bc c1 6c 7e 3c 88 60 33 3e
       -0.07323928 -0.019353041 0.015528859 0.17517292
0002b0 45 c1 ee 3c b5 05 db 3c 51 80 8f bb db 92 75 bd
       0.029144892 0.02673612 -0.00437931 -0.059954505
0002c0 7b 1a ac bd 56 41 9f bc b0 73 81 3d be b9 ea 3a
       -0.08403488 -0.019440334 0.06320894 0.0017908139
0002d0 af 5c f4 bd 4b 9d dd bb 35 7d ad bd f3 6b 70 3c
       -0.119317405 -0.0067631355 -0.08471147 0.014674175
0002e0 9d d6 ed bb 12 ca 22 bc c1 5a 85 bd 19 4a bd 3d
       -0.00725825 -0.009935873 -0.065114506 0.09242649
0002f0 3a c8 79 3d 13 01 2f 3b b2 fe 4b bd 58 7c 65 bc
       0.060981967 0.002670352 -0.049803443 -0.014006697
000300 fe 25 5a 3d b6 38 7c bd 35 1c 75 3c b3 dc b1 3c
       0.05325889 -0.06157752 0.014960338 0.021711683
000310 27 51 3c bd 3e cb 88 3d 82 d7 21 bd 9a b9 c2 bd
       -0.04597583 0.0667939 -0.039512165 -0.09508057
000320 1d 84 92 3c 34 e8 2f 3d a5 e1 72 bd 48 63 d4 bd
       0.017885262 0.042946056 -0.059297223 -0.10370499
000330 32 45 1e 3e a6 97 de bd b7 fd 1a bd b5 93 9b 3d
       0.15456083 -0.108687684 -0.037839618 0.07596532
000340 f4 1b 6e 3d 53 52 12 ba 3e 7b a3 3c f0 b0 39 bd
       0.058132127 -0.0005581725 0.019956227 -0.045334756
000350 da 1b 97 3d 93 b0 eb bb 82 64 c8 bd d4 20 a0 bd
       0.07378359 -0.00719268 -0.09784795 -0.078187615
000360 27 50 e6 3b 3b 65 12 3d 04 36 63 bd cb ea 03 3c
       0.007028598 0.035741072 -0.055471435 0.0080515845
000370 d2 3f 55 bd ab 12 8b bd da dd e9 bd e6 f9 ed bc
       -0.052062817 -0.0679067 -0.11419268 -0.029049825
000380 e4 8f 4f bd 23 1d 1a 3e 2e 3f 7a 3d 98 59 55 bd
       -0.050674334 0.15050177 0.06109541 -0.052087396
000390 fe 84 8c 3d 1a b6 b7 bc 91 ef fb 3c 4d 6d 48 3b
       0.06861304 -0.0224257 0.030753883 0.0030582726
0003a0 01 cb 00 3e 04 b7 c9 3d e1 c6 96 3d bb 4f a8 3d
       0.1257744 0.098493606 0.07362152 0.082183324
0003b0 30 0e 84 bc 4d 3e c9 3c 28 0c f7 bd 33 3e 56 bc
       -0.016120046 0.02456584 -0.120628655 -0.013076353
0003c0 56 48 30 3e db f9 f4 3c 36 ca 9a 3d bc 9d a0 bd
       0.17215094 0.029904297 0.075581 -0.078425854
0003d0 00 d0 a7 3d 6a a0 df 3d ac 58 ec 3c 56 97 71 bd
       0.0819397 0.109192684 0.028850876 -0.058982216
0003e0 1c 74 07 bd b1 11 67 bd 80 3a 23 bd dd 9d d5 3d
       -0.033069715 -0.056413356 -0.03985071 0.10430501
0003f0 36 c7 29 be f7 5c bf bd 4d ba a8 bd 5f a5 25 be
       -0.16579899 -0.093439035 -0.08238659 -0.16176365

layer2.0.bn1.weight f4 [32]
000000 54 7c 3a 3f 72 a9 1b 3f 89 c7 36 3f 30 9c 57 3f
       0.7284596 0.6080543 0.71398216 0.842227
000010 d3 31 51 3f 2a 03 2c 3f 1f a3 2b 3f cd 3b 03 3f
       0.8171665 0.6719233 0.6704578 0.51263124
000020 14 18 5e 3f 98 49 4c 3f e2 48 37 3f ee 69 2e 3f
       0.8675549 0.79799795 0.71595585 0.68130386
000030 fb 08 2a 3f 46 cc 19 3f 56 52 40 3f 5c 49 37 3f
       0.66419953 0.6007732 0.75125635 0.7159631
000040 cd f5 20 3f e9 83 11 3f 9d 7f 3a 3f 5d 16 26 3f
       0.6287506 0.56841904 0.7285097 0.64877874
000050 76 e7 2e 3f aa 58 34 3f 4a bb 35 3f f4 5a 3e 3f
       0.6832193 0.7044779 0.70988905 0.74357533
000060 86 64 26 3f 6c b7 2f 3f 37 4a 1a 3f c2 e8 28 3f
       0.64997137 0.68639255 0.6026949 0.6598016
000070 56 4a 38 3f b9 bd 3b 3f 71 7a 4c 3f 2f e6 31 3f
       0.7198843 0.7333637 0.7987433 0.6949186

layer2.0.bn1.bias f4 [32]
000000 c0 66 24 be 1e ff d2 bd b3 8d e0 bd 54 63 a5 be
       -0.16054821 -0.10302566 -0.10964527 -0.32302344
000010 17 33 a3 bd 0d 1d d6 bc 16 e2 98 bd 80 a5 a6 be
       -0.07968729 -0.0261369 -0.074649975 -0.3254814
000020 f3 c7 24 be 7c 87 62 bd 11 5b 4e be 68 d6 f3 bd
       -0.160919 -0.05530499 -0.20151927 -0.11906129
000030 c6 9a c7 bd 39 3e 4c be 4f 47 02 3c 82 29 1f be
       -0.097463176 -0.19945611 0.007951572 -0.15543178
000040 2e 43 49 bc 7f 3c 29 be 34 2e bf bc e2 0f 78 bd
       -0.012284083 -0.16526984 -0.023337461 -0.060562022
000050 f3 6b a4 bc 09 8d 94 bd a6 c8 a7 bd 04 6e b1 bd
       -0.020071005 -0.07253463 -0.081925675 -0.08663562
000060 a1 a8 87 bd 25 5e 36 bd 78 40 90 be d2 0f 06 be
       -0.0662396 -0.044523377 -0.28174186 -0.13091972
000070 72 39 37 be d1 62 5c bd 88 2f 9a bd 93 64 25 be
       -0.17893007 -0.053805176 -0.07528597 -0.16151647

layer2.0.bn1.running_mean f4 [32]
000000 dc c8 73 bc 4c 5f ca 3e 14 ee 3e 3c 5a 8f 1d 3e
       -0.014879432 0.3952583 0.011653442 0.15386716
000010 87 5a fb be 58 6b 44 bf ba bf 98 bf a9 87 a4 3c
       -0.49092504 -0.76726294 -1.193351 0.020084219
000020 f3 97 de 3d f5 ea 8e 3d 74 ed 63 bf 57 89 ac 3c
       0.10868826 0.06978408 -0.890342 0.021061582
000030 f8 80 17 bf 9d d0 e1 3e b9 bd 92 bf e3 cf 8d bf
       -0.59181166 0.44104472 -1.1464149 -1.1079067
000040 bc f6 05 bf 4e d3 8d 3f 75 83 55 be 18 3a 2b 3e
       -0.5232961 1.108011 -0.20850928 0.1672138
000050 a6 4e c5 bf dc ba 8a bf 56 b3 2e bf f0 45 ef bf
       -1.5414627 -1.0838275 -0.68242395 -1.8693218
000060 01 fc 6b bf 57 d1 2d 3e 90 00 99 3f 72 94 f2 be
       -0.921814 0.16974388 1.1953297 -0.4737888
000070 8a d3 0a 3e 24 b9 3d 3f e2 ed 20 3f 5c a6 2e bf
       0.13557258 0.7411063 0.6286298 -0.68222594

layer2.0.bn1.running_var f4 [32]
000000 2f 1e b1 3e 39 31 f8 3e 15 e1 07 3f e7 fc 1a 3f
       0.3459334 0.48475054 0.5307782 0.6054215
000010 28 77 44 3f ab 74 84 3e e8 aa d6 3e c6 32 00 3f
       0.7674432 0.2587026 0.41927266 0.50077474
000020 f3 f6 55 3f 89 1a fd 3e ed c2 c3 3e a1 0d 83 3e
       0.8357994 0.49434307 0.38234654 0.25596336
000030 c0 d5 91 3e 16 6e a8 3e a2 f3 4f 3f e9 3b 1c 3f
       0.2848339 0.3289649 0.8123113 0.61028916
000040 d4 e0 c7 3e aa 21 8b 3e 45 a7 bb 3e 55 22 37 3f
       0.39038718 0.2717412 0.36651054 0.7153676
000050 44 aa eb 3e 3e 92 25 3f db 66 86 3f 85 c2 47 3f
       0.4602834 0.6467627 1.0500139 0.7803119
000060 21 0f 91 3e bd a4 57 3e a8 70 d3 3e 1b 33 c2 3e
       0.28331855 0.21058936 0.41296887 0.37929615
000070 fa d6 d8 3e c5 55 cc 3e 4e d5 8e 3f bb 8b 07 3f
       0.42351514 0.39909187 1.1158845 0.52947587

layer2.0.conv2.weight f4 [32, 32, 3, 3]
000000 4b 7b 1b 3d 94 5a 98 bd 52 78 ef bb ab 9d 7d 3c
       0.03795938 -0.074391514 -0.0073080445 0.0154794855
000010 02 be 28 bd d8 3f f7 bc e3 02 f3 3d 33 05 cf 3c
       -0.04119683 -0.03018181 0.11865785 0.025271034
000020 c9 68 14 bd e6 5a 01 be bf ff 11 3c e1 47 8f 3d
       -0.036232743 -0.12632331 0.008911072 0.06996132
000030 59 59 4e 3c d6 2d 9c bd 03 20 fa 39 be d9 0a 3b
       0.012594544 -0.0762593 0.00047707566 0.0021186913
000040 fd 39 39 bc d9 c6 a8 bd 31 18 9c 3d 32 6c 2b 3c
       -0.011305329 -0.08241052 0.07621802 0.0104628075
000050 4a 8d 4b bd 56 8e 3b bb 7a f6 b4 3c ed 25 fc bd
       -0.04969529 -0.0028618774 0.022090185 -0.12311921
000060 f7 8e 11 bc 93 62 99 3c ad 88 d1 bd 3f 67 d7 39
       -0.008884183 0.018723762 -0.10231147 0.0004108492
000070 e1 8a 34 3c 34 c4 8a bb e3 8e 5b bd 3c 80 08 3e
       0.011019439 -0.004234815 -0.053603064 0.13330168
000080 e6 4c 10 bd 71 75 3b bd 97 6f 45 3d 1e 98 6a bd
       -0.035229586 -0.045766298 0.048202123 -0.057273977
000090 f0 f8 14 3c 80 f2 e5 3d 8a ad 8a bb f3 6f a2 ba
       0.009092554 0.11227894 -0.0042321132 -0.0012392983
0000a0 26 4c 0e bd 05 a8 87 bb e3 cd b5 bc 84 7b 94 3c
       -0.03474059 -0.0041399025 -0.022192901 0.018125303
0000b0 a8 88 de 3d d4 05 00 bd 89 31 93 3c 34 77 26 3d
       0.10865909 -0.031255558 0.017967956 0.040641025
0000c0 26 3c be bc 86 0e 4e 3c 3d 5a 13 bc 7a ae 60 bd
       -0.02322204 0.012576705 -0.008993682 -0.054853894
0000d0 65 53 36 3c f7 e1 2a 3d 51 e3 1d bc cf 93 5c 3c
       0.011128281 0.041719403 -0.009636716 0.013462975
0000e0 58 42 40 3d 0a 12 65 bd 74 3c 69 3c 9e 27 2d 3d
       0.04693827 -0.055925407 0.014235605 0.04227411
0000f0 e7 a2 5d bd 51 be 9a bd 37 1e 41 3c 35 8b b5 bd
       -0.054110434 -0.07555831 0.011786989 -0.08864442
000100 06 49 9d bd d5 4e d0 bd ce 34 8f bd ec ab c6 bc
       -0.07679944 -0.10171286 -0.069924936 -0.0242519
000110 27 ab 94 3b e1 c8 31 bb 31 19 69 3c c6 7b de 3c
       0.0045370045 -0.002712779 0.0142271975 0.02715863
000120 d9 84 48 bb c2 96 33 3d 80 df c4 3b 4d cc d4 3d
       -0.0030596761 0.043844946 0.0060080886 0.1039053
000130 4d aa 4d 3d 69 a3 93 bd cb a3 cc 3d 88 d7 15 bd
       0.05021124 -0.072089024 0.099921785 -0.0365825
000140 75 c1 38 bc 46 99 9e bd 0f bd 31 bc c2 72 fb bd
       -0.0112765925 -0.07744078 -0.010848298 -0.12277748
000150 da b8 03 bb 0d 59 0b 3e 67 54 02 be af 33 cf 3d
       -0.0020099194 0.13608189 -0.1272751 0.1011728
000160 21 f2 bc 3d e9 cc 15 bd 02 1e ce 3b c8 0d 09 3c
       0.0922587 -0.03657237 0.0062901983 0.008365102
000170 77 8b 43 bd 2f 44 39 bd e9 06 7d 3c 01 d2 ab bc
       -0.047740426 -0.04523104 0.015443542 -0.020974161
000180 0e c4 e3 3c 7d 47 3f bd 94 f0 0f 3b 0b bc 21 bd
       0.027803447 -0.046699036 0.0021963464 -0.039485972
000190 f7 56 62 3d 98 7d d6 3d 88 8b b0 bd 5c 9d 14 3b
       0.055258717 0.10473174 -0.086203635 0.0022676801
0001a0 a0 2f 44 3d 59 01 f1 bd 71 3a 99 bb ef de 8e bd
       0.04789698 -0.11767835 -0.004676156 -0.06976115
0001b0 12 64 6d bd 89 b0 b1 bd 2c 57 f5 3c e4 10 42 3c
       -0.057956763 -0.086762495 0.029948793 0.011844847
0001c0 5d ad ac bd 3d 43 be bc e2 ad 6c 3c 73 0d 82 bd
       -0.08431504 -0.023225421 0.014445754 -0.063502215
0001d0 3c 8f e8 3b 1b 5b 8b 3d 9b d9 ec 3d 61 9e 32 bd
       0.007097153 0.06804486 0.115649424 -0.043608073
0001e0 b3 a6 07 3e 63 c1 37 3d 1d ae 74 bd b0 4e e3 3d
       0.13247184 0.044862162 -0.05973636 0.11098993
0001f0 ce d1 8d 3d f6 21 0c be 99 a9 15 3c a9 9a a4 3b
       0.06924783 -0.1368483 0.0091346735 0.0050233197
000200 57 f3 41 3e b0 9e 1f be 79 c5 36 3c 8d 2a 52 3e
       0.18940483 -0.15587878 0.01115548 0.20524044
000210 f6 e5 2b bd a7 7e e9 bc 28 87 bd 3d ff 9a 1a 3d
       -0.041967355 -0.028502775 0.09254295 0.037745472
000220 78 b9 8b bc 26 bb 2d 3a ae 94 a9 3d 90 1e 26 3d
       -0.017056212 0.00066273136 0.082803115 0.04055649
000230 04 b6 84 bd f2 22 db bc 7b da b2 bd 3c 7f 1c bd
       -0.06480029 -0.026750062 -0.08733078 -0.038207278
000240 91 7c 99 bd 94 7d 96 3c e8 b6 4d 3d 32 19 b5 3a
       -0.07494462 0.018370427 0.05022326 0.0013816713
000250 9e 47 b3 3c 1b 25 8b bc 50 54 35 bd 05 8d 2e 3d
       0.021884736 -0.016985467 -0.04426986 0.042614955
000260 b6 89 b2 3d 81 e2 95 bd a7 fe 15 be b7 9b c4 b8
       0.087176725 -0.07318593 -0.14647923 -9.3750125e-05
000270 5d 54 a4 3d 21 10 19 bc 00 2a e6 bc 7d ce a0 bd
       0.080239035 -0.009342224 -0.028096199 -0.078518845
000280 3b 5c 78 bd 95 be 82 3d eb 71 82 3c a6 5a 0a bd
       -0.060634833 0.06384007 0.015923461 -0.033777855
000290 2d de 09 bb 0d 42 95 3b a6 95 51 bd 6f 81 8e bc
       -0.0021036968 0.004554993 -0.051168106 -0.017395703
0002a0 eb 27 37 bd 91 d1 8c bd bd 3b 95 3d e2 63 09 3c
       -0.044715803 -0.06875909 0.07286785 0.00838563
0002b0 5b 95 3e bc 38 c6 8c 3c c2 86 8c 3c 3a 9f c5 bc
       -0.011632289 0.017184362 0.017154101 -0.024123777
0002c0 4b 04 b2 3d 40 1f 29 3e 20 ef a0 3d 18 7b 49 3d
       0.08692225 0.16515827 0.078581095 0.049189657
0002d0 3b 16 ea ba 6a 99 b6 bd 17 7b 0e be e6 fd 90 3d
       -0.0017859408 -0.0891598 -0.13914143 0.07079677
0002e0 a9 70 c9 bd ed 38 17 bd 03 81 a4 3d cb fb 80 39
       -0.09835941 -0.036919523 0.080324195 0.00024601663
0002f0 18 81 6d bd c3 06 bd 3d b4 7d 29 bd 09 4b 85 3c
       -0.05798444 0.09229805 -0.041379645 0.016271131
000300 98 dd e8 3d 50 96 e2 bd 59 8a 14 3d 85 e0 27 3e
       0.11370391 -0.11063826 0.03626475 0.16394241
000310 a5 f2 86 3d 1d ef f7 3b 10 25 c0 3d 2d cb a8 bd
       0.065892495 0.0075663463 0.09382069 -0.08241878
000320 f1 bc bb 39 70 38 91 3d 0b eb 32 bd 4d a3 c9 bc
       0.00035808192 0.07090843 -0.043681186 -0.024614
000330 2c 85 eb 3d 11 6b fc 3b 01 63 45 3d 73 d4 67 bd
       0.1150001 0.007703193 0.04819012 -0.05659909
000340 4c a0 95 3d c7 e1 8b 3d 12 c5 c1 3c 04 9f e8 bc
       0.07305965 0.06830173 0.02365354 -0.028396137
000350 a7 7f d9 3d b1 e8 4d bd 2b 7c 07 3d 51 cf 08 bd
       0.10620051 -0.05027074 0.0330774 -0.033400837
000360 9c 1e cc bc 6a 1f 15 3d 09 c3 c9 bc b9 0e c3 bc
       -0.02491694 0.036406912 -0.024629133 -0.023810731
000370 b2 8c 57 bd cc 64 69 bd a7 45 ef bd a9 f1 b7 3d
       -0.052624412 -0.056980893 -0.11683207 0.0898164
000380 c3 7b c5 3d 1e 07 17 bd fe 7a 98 3d e9 a1 48 3b
       0.09642746 -0.03687202 0.07445334 0.0030614084
000390 70 df cf bc 57 e6 83 bd d2 31 86 3c 8a 15 71 3d
       -0.025375098 -0.06440418 0.016381178 0.058858432
0003a0 ee 87 de bc e0 27 bb 3c b5 6e e6 bc 61 ff 79 3d
       -0.027164426 0.022846162 -0.028128961 0.061034564
0003b0 c3 6a 19 3b c2 1e 3a bd 24 eb 6b bd 6e b3 c9 3c
       0.0023409582 -0.04543949 -0.057597294 0.024621692
0003c0 2b 9a 93 bd 4c 10 c9 bc 76 15 f8 bd 3c c7 97 bd
       -0.072071396 -0.024543904 -0.12113468 -0.07411048
0003d0 22 50 d8 bd aa f2 79 3c 96 3a d3 3c 97 92 1d bd
       -0.10562159 0.0152556095 0.025784772 -0.038469877
0003e0 9a ad b7 3c 56 65 ba 3c fd d0 28 bd 5d d1 8c 3d
       0.022421647 0.022753399 -0.04121493 0.068758704
0003f0 3b 46 8a bd 58 8a 0d be 0b ad 6f 3d db c3 68 bd
       -0.06751677 -0.13822305 0.058514636 -0.056827407

layer2.0.bn2.weight f4 [32]
000000 6f 4a 55 3f e0 a5 2d 3f 5c 90 35 3f 6f d8 4d 3f
       0.833167 0.6783123 0.709234 0.80408376
000010 eb 72 35 3f 41 3e 46 3f 9a 95 69 3f 30 e2 48 3f
       0.70878476 0.7743874 0.912439 0.78470135
000020 dd ba 39 3f 6c 66 20 3f 89 e9 5e 3f 43 17 77 3f
       0.72550756 0.62656283 0.87075096 0.9651987
000030 c5 d0 50 3f ab 2e 4a 3f 5e c3 58 3f 41 2e 3f 3f
       0.8156856 0.7897746 0.84673107 0.7467995
000040 6e 24 43 3f d4 0e 4a 3f 9f e3 63 3f ea ec 49 3f
       0.7622746 0.78928876 0.890192 0.7887713
000050 78 24 36 3f c8 11 43 3f 40 aa 37 3f e2 01 38 3f
       0.71149397 0.7619901 0.71744156 0.7187787
000060 81 64 40 3f ec 56 37 3f 4e 61 35 3f 31 0c 43 3f
       0.75153357 0.7161701 0.708516 0.7619048
000070 ac ed 2a 3f cf 14 54 3f 3e a0 25 3f c9 d4 5a 3f
       0.6676891 0.8284425 0.64697635 0.85480934

layer2.0.bn2.bias f4 [32]
000000 90 5f 0b bd 6e 14 12 be 5a b5 27 be 93 ae 66 be
       -0.034026682 -0.14265606 -0.16377774 -0.22527532
000010 f8 c2 91 bd 8d 4d 1c 3a 37 3c 5a be 12 cf 02 bd
       -0.071172655 0.00059624837 -0.21312033 -0.03193576
000020 bc ef cc bd f4 8d 12 be 4f e7 3e be 5e e7 14 be
       -0.10006663 -0.14311963 -0.18642925 -0.14541385
000030 46 fd 25 be 07 af 49 bd ca 24 39 be fe 67 86 ba
       -0.16209897 -0.049239185 -0.1808044 -0.0010254381
000040 51 c7 8f bd 01 5f 81 bd 15 2b 10 bd cb 28 c7 bd
       -0.070204385 -0.06316949 -0.035197336 -0.097245775
000050 eb 16 8e bd 0a 3f ea bd c9 dc 0a bd 3b 29 b8 bd
       -0.06937965 -0.11437805 -0.033901963 -0.08992239
000060 6b 61 11 be b7 15 dc bd 4f a4 dd bd 78 3e 2e bd
       -0.14197318 -0.10746329 -0.10822355 -0.042540044
000070 ed b5 a7 bd 86 a2 bd bd fb b3 00 be 7e 8d 40 bd
       -0.081889965 -0.092595145 -0.12568657 -0.047009937

layer2.0.bn2.running_mean f4 [32]
000000 6c 9d 19 bd 55 71 fb 3d 89 60 9c be d0 6a 31 3e
       -0.037503645 0.12277476 -0.305424 0.17325902
000010 dc c6 3d be 66 24 92 bf 07 29 23 3d 1f 15 37 be
       -0.1853289 -1.1417358 0.03983405 -0.17879151
000020 e5 2d da 3d 26 ea a6 bd 0f f5 9c 3e a5 ff 48 3e
       0.10653285 -0.08150129 0.30655715 0.1962877
000030 36 c9 26 be 6b 75 ce bd 57 2f a8 3d 35 7e 41 be
       -0.16287693 -0.100809895 0.08212154 -0.188958
000040 65 25 0f bf 0e 70 ec bd d1 66 a4 be 8b 9b 08 3f
       -0.55916435 -0.1154481 -0.32109693 0.5336234
000050 7c 13 71 3e 3c 43 da be 17 ff 3e bf dc 53 1c bf
       0.23542589 -0.4262942 -0.74607986 -0.6106546
000060 17 a6 f0 bd 4f 5f 24 bd a2 80 09 bf 58 32 5f bf
       -0.11750429 -0.040129956 -0.53711903 -0.87186193
000070 f4 0b 0f 3e d8 3a 4c 3c 49 83 0b bc c5 f0 e0 bd
       0.13969404 0.012465201 -0.008515188 -0.10983423

layer2.0.bn2.running_var f4 [32]
000000 bd 59 e2 3e 1d df 24 3e ad 7e 8a 3e 8d 92 bb 3e
       0.4420909 0.16100736 0.2704977 0.36635247
000010 71 d6 62 3e 38 f1 0c 3f 42 a1 87 3e 23 47 7b 3e
       0.22152115 0.5505557 0.26490217 0.24538855
000020 a4 1f 2d 3e 98 4c 32 3e b3 16 91 3e 4e 9e c2 3e
       0.16906601 0.1741203 0.2833763 0.38011402
000030 f2 19 99 3e a3 92 39 3e 9e 80 48 3e de 56 6b 3e
       0.29902607 0.18122344 0.19580314 0.22982356
000040 dc e2 51 3e 7b bc 49 3e 54 cf 7c 3e d3 24 b4 3e
       0.20496696 0.19700806 0.24688464 0.35184345
000050 de a7 2d 3e 9c a2 85 3e ba 69 99 3e f1 da 55 3e
       0.16958568 0.26100624 0.29963475 0.20884301
000060 c6 78 92 3e 49 14 4b 3e 64 0b b7 3e b4 7d 99 3e
       0.28607768 0.19831957 0.35750878 0.29978716
000070 8b 5e a1 3e 7e 96 ab 3e 2c fd 8c 3e 0e b4 76 3e
       0.31517443 0.33513254 0.27536905 0.24092123
